ncf_model.pth (torch, 40863 bytes, 9 tensors)

user_embedding.weight f4 [2, 50]
0	0xc0075343	-2.114457
1	0xbe93a20d	-0.28834572
2	0x3fc3f6e6	1.5309722
3	0x3d967fe2	0.073486105
4	0x3f4d2638	0.8013644
5	0xbf0b5fc1	-0.54442984
6	0x3eff96f1	0.49919847
7	0x3f238769	0.63878495
8	0xbfd3021f	-1.6485022
9	0xbfa329c3	-1.274712
10	0x3eae4c94	0.340428
11	0xbf726508	-0.9468541
12	0x3fc48e87	1.5355996
13	0x3ff08748	1.8791285
14	0xbef3e66a	-0.4763673
15	0xbf2d710f	-0.6775064
16	0xbf6df158	-0.92946386
17	0x3ef56e94	0.47935927
18	0x3f9c9634	1.2233338
19	0x3ee62efb	0.44957718
20	0xbe487e8c	-0.19579524
21	0x3ef08ef3	0.46984062
22	0x4027c6ce	2.621509
23	0xbebbf0de	-0.36707205
24	0x3dba0989	0.0908385
25	0xbf09bc7e	-0.5380324
26	0x3f940936	1.1565311
27	0xbeca571e	-0.3951959
28	0xbefabd0b	-0.48972353
29	0x3e3cfa4d	0.18454857
30	0xbf981e17	-1.1884183
31	0xbf57c429	-0.8428369
32	0xbfc26925	-1.5188338
33	0x3e439755	0.19100697
34	0x3ea04a6a	0.31306773
35	0xbeac58e3	-0.33661565
36	0xbef39b41	-0.47579387
37	0x3f3cbf9b	0.73729867
38	0x3f81af1b	1.0131563
39	0xbfdff488	-1.74965
40	0xbf086abb	-0.5328786
41	0xbd1657b8	-0.03670475
42	0xbf644fdf	-0.89184374
43	0x3f529218	0.8225417
44	0x3fe4dcc6	1.7879875
45	0x3ecbcdb5	0.3980538
46	0x4014183f	2.3139799
47	0x3f4275e6	0.7596115
48	0x3f11adf8	0.5690608
49	0x3e84d1c4	0.25941288
50	0xbf70141c	-0.93780684
51	0x3fade4bb	1.3585428
52	0xbfa32f51	-1.2748815
53	0x3fa512b6	1.2896335
54	0x3e3c3bba	0.18382159
55	0x3f085e6a	0.53269064
56	0xbf0de359	-0.5542503
57	0xbf671a03	-0.90274066
58	0x3e3b6ad9	0.18302478
59	0x3f251eda	0.645002
60	0x3e75346f	0.23945783
61	0x3fad506a	1.3540165
62	0x3fc3453d	1.5255505
63	0xbf888ed9	-1.0668594
64	0xbf74f90d	-0.9569252
65	0xbf6bb4f4	-0.9207299
66	0x3e5d88fe	0.2163429
67	0xbec1ec96	-0.37875813
68	0xbfdea3f9	-1.739379
69	0x3e342765	0.17593153
70	0x3fa41775	1.2819659
71	0x3f05d286	0.5227436
72	0x3f215a91	0.6302882
73	0x3f4debcb	0.80437917
74	0x3d3292ba	0.04359696
75	0x3e27c4d2	0.16383675
76	0xbe9131be	-0.28358263
77	0x3f6d35af	0.9266004
78	0x3d644c5e	0.055736892
79	0x3df710c6	0.12063746
80	0x3fcfe25d	1.6240956
81	0xbd73b264	-0.0594963
82	0x3fe03f60	1.751934
83	0xbe883840	-0.26605415
84	0xbf1e8875	-0.61926967
85	0xbf962e1c	-1.1732821
86	0x3e270de3	0.16313891
87	0xbf0e2d9b	-0.5553834
88	0x3fdd0d4e	1.7269685
89	0x3fb788b9	1.43386
90	0x3f26abec	0.6510608
91	0x3c92c6c1	0.017917039
92	0x3fa84ce7	1.3148469
93	0xc00364dc	-2.053031
94	0x3f4d6078	0.80225325
95	0xbfc0d6f6	-1.5065601
96	0xbf787bc1	-0.97063833
97	0xbe5dad7e	-0.21648213
98	0x3e245b81	0.16050531
99	0x3f06d3e5	0.52667075

item_embedding.weight f4 [3, 50]
0	0xbf1e8894	-0.6192715
1	0xbe9db07b	-0.30798706
2	0x3d766da4	0.060163155
3	0xbfab5735	-1.3385988
4	0x3f318147	0.69337887
5	0xc017fdfd	-2.3748772
6	0xbe440262	-0.19141534
7	0xbeeca34f	-0.46218345
8	0x3f21a224	0.6313803
9	0xbf40e555	-0.7534993
10	0x3f04f8f5	0.5194238
11	0x3dfcb3fd	0.123390175
12	0xbfa8d841	-1.3190995
13	0x3e360dd0	0.17778707
14	0x3d873864	0.066025525
15	0xbf99e874	-1.2024064
16	0xbf9fabc1	-1.247429
17	0x3e92503d	0.28576842
18	0xc004c3f1	-2.0744593
19	0xbfbae681	-1.4601594
20	0x3f66e463	0.9019224
21	0x3f0030bb	0.50074357
22	0xbfd568d3	-1.6672615
23	0xc002eb95	-2.0456288
24	0x3fb59f19	1.4189178
25	0xbf8ab9c8	-1.0837946
26	0x3edb5a74	0.42842448
27	0xbfa66cf9	-1.3002006
28	0x3f46fba0	0.777277
29	0xbf98a9ce	-1.192682
30	0x3ec9401a	0.39306718
31	0x3f0c953b	0.5491521
32	0xbec1b34e	-0.3783211
33	0x3fc01072	1.5005019
34	0xbf054e6e	-0.520728
35	0x3f970bf7	1.1800526
36	0xbf9ae81b	-1.2102083
37	0xbf50e412	-0.8159801
38	0xbed98b3a	-0.42489034
39	0x3fdc1959	1.7195235
40	0xbf064068	-0.52442026
41	0x3faa73e6	1.3316619
42	0x3e32e8ba	0.1747159
43	0x3ce71ed9	0.028212951
44	0x3f8ff965	1.1247984
45	0xbf9cdcd0	-1.2254887
46	0x3ebbb9e2	0.36665255
47	0xbe8cca00	-0.27497864
48	0x3f6666fe	0.90000904
49	0xbd0f4f18	-0.03498754
50	0xbfd2ffc9	-1.648431
51	0xbdf60c34	-0.12014046
52	0xbfedf362	-1.85899
53	0xbf2e507d	-0.68091565
54	0x3f873e93	1.0565971
55	0xbf755ff8	-0.9584956
56	0xbf81bd25	-1.0135847
57	0xbf8b4337	-1.0879887
58	0xbe8c6752	-0.27422577
59	0xbf1ddbdf	-0.6166362
60	0x3e304afb	0.17216103
61	0xbf1f3737	-0.62193626
62	0x3ec25e7c	0.3796271
63	0x3fb4f8de	1.4138448
64	0x3fac168d	1.3444382
65	0xbcc26008	-0.023727432
66	0xbf90ff58	-1.1327925
67	0x400f5ddc	2.2401037
68	0x3c71849f	0.014741092
69	0x3f269186	0.650658
70	0xbfb82957	-1.4387616
71	0x3f67f3de	0.90606487
72	0x3f9c22de	1.2198141
73	0xbf806249	-1.0029994
74	0x3ed5da29	0.41768005
75	0xbfb675f2	-1.4254744
76	0x3e9dbb21	0.3080683
77	0x3ef81e11	0.4846044
78	0x3e954262	0.2915221
79	0x3f54fbf7	0.8319697
80	0xbf027577	-0.5096049
81	0xbeaf17cc	-0.34197843
82	0x3e94f51e	0.2909326
83	0xbf476c87	-0.77899975
84	0xbf49145a	-0.7854668
85	0x3f903e22	1.1268961
86	0x3fb0a3a2	1.3799937
87	0x3e8adc48	0.27121186
88	0x3f35f054	0.71069837
89	0x3fed2cf6	1.8529346
90	0x3e613cbe	0.21995828
91	0xbfd35d7e	-1.6512907
92	0xbe282d59	-0.16423549
93	0xbf17052e	-0.5899228
94	0xbfcff625	-1.6246992
95	0xbea37a80	-0.31929398
96	0xbe8ed22b	-0.2789472
97	0xbf267e65	-0.6503661
98	0xbf96c4a5	-1.1778761
99	0xbf24a4fc	-0.64314246
100	0x3ebcd3a6	0.36880225
101	0xbeb31596	-0.34977406
102	0x3f22e53f	0.6363105
103	0xbc216502	-0.009850742
104	0xbfd5c68f	-1.670122
105	0x3fa5853c	1.2931285
106	0xbf010c4c	-0.5040939
107	0xc0120970	-2.281826
108	0x3ff39fa6	1.9033096
109	0xbf9d37ee	-1.2282693
110	0xbe96c7ae	-0.2944922
111	0xbfbf2b5d	-1.4935108
112	0xbfda9bc0	-1.7078781
113	0xbd74f6cf	-0.059805688
114	0x3ffa5061	1.955578
115	0xbff6c0ae	-1.9277551
116	0x3f29b8d8	0.66297674
117	0xbe2e2be6	-0.17008933
118	0x3fdbef0f	1.718233
119	0x3f14ad47	0.580769
120	0x3fb26724	1.3937726
121	0x3e870686	0.26372164
122	0xc01c2092	-2.439488
123	0x3ecff8f2	0.40619618
124	0xbf69bd15	-0.9130414
125	0xbfaba99a	-1.3411133
126	0xbf2f4422	-0.6846334
127	0xbfa030e8	-1.2514925
128	0xbfd6f139	-1.6792365
129	0xbf8da27d	-1.1065212
130	0xbf9812d7	-1.188075
131	0xbef3247c	-0.47488773
132	0xbe45da4a	-0.19321552
133	0xbe398bac	-0.18119687
134	0xbe55053f	-0.20802782
135	0x3fcb2f0e	1.5873735
136	0xbed09cb1	-0.40744546
137	0xbe27882a	-0.16360536
138	0xbf9a16ce	-1.203821
139	0xbe9f10a0	-0.3106737
140	0xbf337121	-0.70094496
141	0x3f409737	0.75230736
142	0xbfa13a40	-1.2595901
143	0x3e24afb8	0.16082656
144	0x3fa164d7	1.2608899
145	0xc03f469c	-2.9886847
146	0x3f6129db	0.8795449
147	0x3db1aa14	0.08675018
148	0x3f21101d	0.6291521
149	0x3fc450b9	1.5337135

mlp_layers.0.weight f4 [64, 100]
0	0x3d7bf9d6	0.06151756
1	0xbcdda7cb	-0.027057549
2	0xbc840493	-0.016115462
3	0x3cf5fafe	0.030026909
4	0xbc30f1cf	-0.010799839
5	0xbbab4291	-0.005226441
6	0xbd81bb4d	-0.06334553
7	0x3c49f35e	0.01232609
8	0xbbe6f3a1	-0.007048086
9	0xbc3111fe	-0.010807512
10	0x3d727f5d	0.059203494
11	0xbd840661	-0.06446529
12	0x3ce6e739	0.028186427
13	0xbd8d262d	-0.06892047
14	0x3dac48f1	0.0841235
15	0xbd0b1202	-0.03395272
16	0xbdcadf66	-0.09905891
17	0x3d97635b	0.073919974
18	0xbcd0000e	-0.025390651
19	0xbdf99c6d	-0.12188039
20	0xbdafbc0d	-0.0858079
21	0x3992584e	0.00027913082
22	0x3d3368be	0.04380106
23	0x3df9bf8b	0.12194737
24	0xb996cfdb	-0.00028765094
25	0x3d926f5d	0.07150147
26	0x3db5de2e	0.08880268
27	0xbca6e7e8	-0.020374253
28	0xbda9732c	-0.082739204
29	0x3d0c2661	0.03421629
30	0x3d7ecd5e	0.062207572
31	0x3d9128a9	0.070878334
32	0x3c4bb762	0.012433859
33	0xbd583a8c	-0.05279021
34	0x3d8d1382	0.068884864
35	0xbbe0eda3	-0.006864266
36	0x3cc2172d	0.023692692
37	0xbd13e0ea	-0.036103167
38	0xbc616320	-0.013756543
39	0x3c3fc8a1	0.0117055485
40	0x3dfa2500	0.122140884
41	0xbc298bd0	-0.010348275
42	0x3d966f8b	0.07345494
43	0xbdca09f3	-0.09865179
44	0x3de98127	0.11401587
45	0x3daac1a4	0.08337715
46	0x3cf76e0f	0.030203847
47	0xbc3ea2b8	-0.011635475
48	0x3df9dfc0	0.1220088
49	0xbd4ddc51	-0.05025894
50	0x3cac710f	0.021050004
51	0x3d52cf2b	0.051467102
52	0xbc62e529	-0.013848581
53	0xbdc39146	-0.09549193
54	0xbd9f55e3	-0.077800535
55	0x3c66ae8d	0.014079702
56	0x3c7722aa	0.015083948
57	0xba3e7416	-0.0007265223
58	0x3be76a91	0.0070622643
59	0xbdb00955	-0.0859553
60	0xbc6b9f0c	-0.014381181
61	0xbd0986e7	-0.03357592
62	0x3c828ea2	0.015937153
63	0xbc42f83e	-0.011900006
64	0xbd9eda01	-0.07756425
65	0xbd37032f	-0.04468077
66	0x3d0bf632	0.034170337
67	0xbde2b925	-0.1107047
68	0x3bd65ac1	0.0065415804
69	0x3db2a7e5	0.087234296
70	0xbc7b33a1	-0.0153321335
71	0x3cfba9d0	0.030720621
72	0xbc6967b1	-0.014245913
73	0xbc2fdb6a	-0.010733465
74	0x3d8aca14	0.067768246
75	0xbd7c2224	-0.061555997
76	0x3d2a1686	0.041525386
77	0xbc35b90e	-0.011091484
78	0x3d7853bd	0.060626734
79	0x3d0ff1c3	0.03514267
80	0xbaff8e4c	-0.0019497364
81	0x3d926bca	0.071494654
82	0x3d04ec9b	0.032452207
83	0x3b125eb0	0.002233427
84	0xbdd2a418	-0.10285205
85	0x3dd4a680	0.1038332
86	0xbd656708	-0.05600646
87	0xbbc534fd	-0.0060182796
88	0x3d40bf36	0.047057353
89	0xbdabb1d3	-0.08383527
90	0xbd367f5c	-0.044555053
91	0x3c9ac2f1	0.018891783
92	0x3dc216d5	0.09477011
93	0xbda59b9b	-0.0808632
94	0x3d977d09	0.073968954
95	0xbb8ae4dc	-0.004238708
96	0xbd7b7db5	-0.06139918
97	0x3cce4654	0.02518002
98	0x3cad5f30	0.021163553
99	0xbc8ff58f	-0.017573146
100	0xbe1b995a	-0.15195218
101	0xbd80d45c	-0.06290504
102	0xbb95c4e9	-0.0045705927
103	0x3db93f27	0.090452485
104	0x3dccc31d	0.099981524
105	0xbcc83f43	-0.024444228
106	0x3ce33523	0.027735298
107	0xbdaf67e6	-0.08564739
108	0xbd86a327	-0.065740876
109	0xbdc84d7b	-0.09780403
110	0x3ba8636e	0.005138806
111	0x3d08f82d	0.033439804
112	0xbc9895c7	-0.018626107
113	0xbd92f863	-0.07176282
114	0xbd037c8b	-0.032101195
115	0x3d8606dd	0.06544278
116	0xbd355782	-0.044272907
117	0x3daf150b	0.085489355
118	0xbc7402b1	-0.01489322
119	0xbc3e0a9d	-0.01159921
120	0xbd2d09df	-0.042245742
121	0x3dbdb7c3	0.092635654
122	0xbe2b2b8f	-0.16715835
123	0x3e0bf15b	0.13666289
124	0xbd85361a	-0.0650446
125	0x3dd8f75d	0.10594056
126	0x3d42bfcf	0.047546204
127	0x3cc26e01	0.023734095
128	0x3ac67c67	0.0015143276
129	0xbc7d827d	-0.015473005
130	0xbda64c58	-0.0812003
131	0x3e13f60d	0.1444933
132	0xb9f05c31	-0.00045845055
133	0xbd7c9f1a	-0.06167517
134	0x3d4187d3	0.047248673
135	0xbcda3abb	-0.026639333
136	0xbd1ca11f	-0.038239595
137	0xbd76e66c	-0.06027834
138	0x3c8cb014	0.017173804
139	0x3d2713a6	0.040790223
140	0xbcd2ff45	-0.025756488
141	0xbd31464e	-0.04327994
142	0x3d2887ce	0.04114514
143	0xbd9e1662	-0.07719113
144	0xbdcccb88	-0.09999758
145	0xbdc59bae	-0.09648834
146	0x3d796ccd	0.060894776
147	0x3cb29966	0.021801662
148	0xbd83a4a2	-0.064278856
149	0xbe1a10b6	-0.15045437
150	0xbdf89032	-0.12136878
151	0x3bc073a2	0.0058731595
152	0x3dc7446d	0.09729848
153	0x3ba313de	0.0049767336
154	0x3d99ad76	0.07503788
155	0xbd51a503	-0.051182758
156	0xbd6cb70a	-0.057791747
157	0x3e3f3d46	0.18675718
158	0x3d5947a3	0.053046834
159	0xbc78bb38	-0.015181355
160	0x3dd16404	0.102241546
161	0x3ccd1a80	0.02503705
162	0xbd1c0e98	-0.038099855
163	0xbdeff0b9	-0.11715836
164	0x3d42d621	0.04756749
165	0x3d0586fa	0.032599427
166	0xbd71b13c	-0.059006914
167	0x3dcabc3e	0.098991856
168	0x3cbb127f	0.022835968
169	0xbc368d4f	-0.011142089
170	0xbd46db16	-0.04854878
171	0xbd24ea4d	-0.04026251
172	0xbd1a7a69	-0.037714396
173	0x3b040b91	0.0020148496
174	0x3d12b40c	0.035816237
175	0x3dc8e627	0.09809523
176	0x3d812417	0.06305712
177	0x3c07f16e	0.008297307
178	0xbe3c84ab	-0.18409984
179	0xbd929898	-0.07158011
180	0x3c72fdde	0.0148310345
181	0xbcb6422e	-0.022248354
182	0x3cb48b21	0.022038998
183	0x3d1be4fa	0.038060166
184	0x3dcdfe01	0.10058213
185	0xbc563fec	-0.013076764
186	0x3e121274	0.14264852
187	0x3dc9a04f	0.098450296
188	0xbcbaaeb1	-0.022788377
189	0xbcafe30c	-0.02147057
190	0x3ca389aa	0.019963104
191	0x3cfb3828	0.030666426
192	0xbb8a6f34	-0.004224682
193	0x3dec36ab	0.115338646
194	0xbdaa3137	-0.08310168
195	0xbbee29cf	-0.0072681676
196	0xbe465cb8	-0.19371307
197	0xbd70552b	-0.058674973
198	0x3b16525b	0.0022937271
199	0xbdb5e39e	-0.08881305
200	0x3d7e985f	0.06215703
201	0x3d9a4441	0.0753255
202	0xbda6fbf2	-0.081535235
203	0x3d9bf5b5	0.07615224
204	0xbce698ec	-0.02814909
205	0x3cc41b5a	0.023938823
206	0x3c690b4c	0.014223885
207	0x3d121d24	0.035672322
208	0xbd832936	-0.06404345
209	0x3dad85a2	0.08472754
210	0x3af1cf39	0.0018448598
211	0xbde48339	-0.11157841
212	0x3df846a3	0.12122848
213	0x3c798449	0.015229293
214	0xbdc3973a	-0.095503286
215	0xbdd0ea1f	-0.10200905
216	0x3cd5844a	0.026064057
217	0xbd292512	-0.04129512
218	0xbd7072f9	-0.058703396
219	0x39bd07a1	0.00036054573
220	0x3c78c12e	0.015182776
221	0xbc2d8030	-0.010589644
222	0x3d2ecee5	0.04267778
223	0xbcd88954	-0.02643267
224	0x3cb683be	0.022279616
225	0x3d2e6b90	0.04258305
226	0xbd295f37	-0.04135057
227	0xbdeaedda	-0.11471148
228	0xbdbf9afc	-0.09355733
229	0x3d80f713	0.06297126
230	0x3d9e2378	0.07721609
231	0xbd2891f8	-0.04115483
232	0x3cca4578	0.024691328
233	0x3d3a1e04	0.04543878
234	0xbd34601a	-0.044036962
235	0xbc0ccb37	-0.008593372
236	0xbd9ffd8e	-0.078120336
237	0x3c73d7fb	0.014883037
238	0xbdc731b7	-0.09726279
239	0x3d6b8aaf	0.057505306
240	0xbba6e368	-0.005093027
241	0x3b850d0f	0.0040603946
242	0x3db83919	0.089952655
243	0xbcf686af	-0.030093519
244	0x3e0db05f	0.13836811
245	0xbda6b397	-0.08139723
246	0x3c971371	0.018441888
247	0x3d785296	0.060625635
248	0x3d94bc53	0.072624825
249	0x3dba5d24	0.090997964
250	0xba717367	-0.00092106167
251	0xbcea8e87	-0.028632415
252	0xbd5eafb9	-0.0543668
253	0xbdff50a9	-0.124665566
254	0xbd84ec45	-0.06490377
255	0x3d42f566	0.04759731

mlp_layers.0.bias f4 [64]
0	0x3c59d1f7	0.013294688
1	0x3bc052a8	0.0058692284
2	0xbd3f7eba	-0.046751715
3	0xbe00db6c	-0.12583703
4	0xbe02d0e1	-0.12774993
5	0xbe39fa39	-0.18161859
6	0xbd6dfd58	-0.058102936
7	0x3d4c9846	0.049949907
8	0xbdb1856e	-0.08668028
9	0x3c94e9c9	0.018177884
10	0xbd37918f	-0.04481655
11	0xbe67a483	-0.2262135
12	0x3e3b995f	0.18320225
13	0xbe67030e	-0.22559759
14	0xbac0fcd1	-0.0014723783
15	0xbe244797	-0.16042934
16	0xbd87ef34	-0.06637421
17	0xbe13df6f	-0.14440702
18	0xbda7498c	-0.08168325
19	0xbd495d15	-0.049161036
20	0x3e132a9a	0.1437172
21	0xbe3c6874	-0.1839922
22	0xbc6cab5a	-0.01444515
23	0xbb5f1e5d	-0.0034045198
24	0xbcd0da0e	-0.025494602
25	0x3e84afa4	0.25915253
26	0x3c6629f8	0.014048092
27	0x3d894e0f	0.067043416
28	0xbdd8c469	-0.10584337
29	0xbe076eb0	-0.13225818
30	0xbdd6dbd8	-0.104911506
31	0xbcd8dfdb	-0.02647393
32	0xbda7f756	-0.082014725
33	0xbd0fe9e6	-0.035135172
34	0xbd44ac75	-0.04801603
35	0xbe259539	-0.16170205
36	0x3ce06299	0.027390765
37	0xbdc35ad2	-0.09538807
38	0x3dc4a301	0.09601403
39	0x3c872a56	0.01649968
40	0xbe016924	-0.12637764
41	0x3d4626ef	0.048376974
42	0xbe5ee53c	-0.21767133
43	0xbdd51197	-0.104037456
44	0xbddd46f8	-0.10804552
45	0x3e70e124	0.23523384
46	0x3e791cc4	0.2432738
47	0xbe832ca4	-0.25619996
48	0x3c075c09	0.008261689
49	0xbe5a1533	-0.2129715
50	0x3ca7ee29	0.020499306
51	0x3e185b0d	0.14878483
52	0xbcc42625	-0.02394397
53	0x3d845f8d	0.06463537
54	0xbdb18068	-0.0866707
55	0x3d6ae45b	0.057346683
56	0x3d513525	0.051076073
57	0x3c3cbcfc	0.011519667
58	0x3e1811ee	0.1485059
59	0xbe88b5d9	-0.2670124
60	0x3e67e0b0	0.22644305
61	0xbcff4353	-0.031160032
62	0x3d104b57	0.0352281
63	0xbdb4f5b6	-0.08835928

mlp_layers.2.weight f4 [32, 64]
0	0xbe1b5262	-0.15168145
1	0x3d7fe493	0.062473845
2	0xbd91fc2d	-0.07128177
3	0x3d792e75	0.06083532
4	0x3d72d8f9	0.059288952
5	0xbd10bda1	-0.035337094
6	0xbc91770c	-0.017756961
7	0xbe2a3af8	-0.16624057
8	0xbdbee0b3	-0.09320202
9	0xbcdaf4d8	-0.026728079
10	0xbe13c199	-0.1442932
11	0xbdb0294b	-0.08601626
12	0xbdfdb331	-0.12387694
13	0x3cc0addd	0.023520404
14	0x3d221564	0.03957118
15	0xbcc4aee4	-0.024009176
16	0xbdc5fe24	-0.09667614
17	0x3d554ad8	0.05207333
18	0x3da9c01f	0.08288597
19	0x3dcd02ac	0.10010275
20	0xbe248b54	-0.16068774
21	0x3d2aaa4b	0.04166631
22	0xbdad23df	-0.084541075
23	0xbe0b7c3a	-0.13621607
24	0xbcd75835	-0.026287178
25	0xbd59538e	-0.0530582
26	0xbe00ac58	-0.12565744
27	0xbe00f070	-0.1259172
28	0x3d228719	0.03967962
29	0xbde36177	-0.11102574
30	0x3d5e63a8	0.05429426
31	0x3d8075b1	0.06272448
32	0xbe1029e4	-0.1407848
33	0xbd9a0d43	-0.07522061
34	0x3c5dea8f	0.013544693
35	0x3d12fef4	0.035887673
36	0xbdf8c470	-0.121468425
37	0x3cc400a1	0.023926081
38	0xbb8f2b00	-0.0043691397
39	0xbccbdd60	-0.024885833
40	0xbdc233f8	-0.094825685
41	0x3d5396cc	0.051657483
42	0x3d2834aa	0.04106585
43	0xbd122c03	-0.035686504
44	0x3d1fcb43	0.039012205
45	0xbdba3bc6	-0.09093432
46	0xbdadd47e	-0.08487795
47	0x3d445e33	0.047941398
48	0xbd0f22a8	-0.03494516
49	0x3da6d3a3	0.08145835
50	0x3d073681	0.033010963
51	0xbd989bb6	-0.074515745
52	0xbdd0e82e	-0.10200535
53	0xbddd512a	-0.108064964
54	0xbcd64b65	-0.026158998
55	0xbe0118e7	-0.12607156
56	0xbda90bd5	-0.0825421
57	0xbdd07e55	-0.10180346
58	0xbcb18f6e	-0.021674838
59	0xbe05b6ae	-0.13057968
60	0xbda53905	-0.08067516
61	0x3d42715f	0.0474714
62	0x3d848079	0.06469817
63	0xbdabc008	-0.083862364
64	0xbe0f708b	-0.14007775
65	0xbd9d9b93	-0.07695689
66	0x3c736fe3	0.014858219
67	0xbc07cb02	-0.008288147
68	0xbddbaec4	-0.10726693
69	0xbdf798dc	-0.120897025
70	0x3bb66ca3	0.0055671497
71	0x3dbc9165	0.09207419
72	0x3ce0dc2b	0.027448734
73	0xbdc66949	-0.0968805
74	0x3c3b2d8e	0.011424435
75	0xbd83f678	-0.064434946
76	0x3da43357	0.08017605
77	0xbc7158ee	-0.014730675
78	0xbda7a618	-0.08185977
79	0x3d5706e6	0.052496813
80	0xbd21c22a	-0.03949181
81	0xbbcafb76	-0.0061945273
82	0xbe1e8a49	-0.15482439
83	0xbdf9784a	-0.121811464
84	0x3dc994c6	0.098428294
85	0xbdca4ea9	-0.098782845
86	0xbda6cc5f	-0.081444494
87	0x3db1af0e	0.08675967
88	0xbd5c091b	-0.05371962
89	0xbe1170c1	-0.14203168
90	0xbdb6a1f3	-0.08917608
91	0x3d0e687f	0.034767624
92	0x3d8076a8	0.06272632
93	0x3cbd6da5	0.023123572
94	0xbdd61ad8	-0.10454339
95	0xbcb4e7f0	-0.022083253
96	0x3c32a42e	0.010903401
97	0xbdb3163a	-0.08744474
98	0x3dbd99e6	0.092578694
99	0xbd1c2244	-0.038118616
100	0x3d80dc8a	0.062920645
101	0xbda71698	-0.08158606
102	0xbdfec383	-0.12439635
103	0x3d782b66	0.060588263
104	0xbd3b27c4	-0.04569222
105	0xbdbe4e64	-0.092922956
106	0xbda61706	-0.0810986
107	0xbd396f90	-0.04527241
108	0x3d41001e	0.047119252
109	0xbd732ea9	-0.05937067
110	0xbded9ce4	-0.1160219
111	0xbda8906f	-0.082306735
112	0x3d25e5ac	0.040502235
113	0xbdd47031	-0.10372961
114	0x3da01638	0.07816738
115	0x3cbee8e4	0.02330441
116	0xbd8a52e9	-0.06754095
117	0x3d4d76ce	0.05016213
118	0xbbfd1cfd	-0.007724403
119	0xbd92d008	-0.07168585
120	0xbdae6393	-0.08515086
121	0xbd507fce	-0.050903134
122	0xbdb878d4	-0.09007421
123	0xbe0306a1	-0.12795497
124	0xbdcad470	-0.099038005
125	0xbd5ca744	-0.053870454
126	0x3c2cbe26	0.010543382
127	0xbdb2a10c	-0.087221235
128	0x3c3bc85c	0.011461344
129	0xbe153afa	-0.14573279
130	0x3d15c90d	0.03656869
131	0x3c970e5c	0.018439464
132	0xbd347dff	-0.04406547
133	0x3d3c8df4	0.046033815
134	0x3d8e5a3f	0.06950807
135	0x3dc4caab	0.09608968
136	0xbcf74fc2	-0.030189399
137	0x3c3ad2b2	0.011402773
138	0xbd80104c	-0.062531084
139	0xbdb05adf	-0.08611082
140	0x3c141e16	0.009040376
141	0xbe02d3a8	-0.12776053
142	0x3d94ee33	0.072719954
143	0xbdf56ec0	-0.119840145
144	0xbd7a8512	-0.061162062
145	0x3ae3d581	0.0017382355
146	0xbdf56ad8	-0.119832695
147	0x3db9bceb	0.09069236
148	0x3ca3540b	0.019937536
149	0xbd032527	-0.032017853
150	0xbd109cd4	-0.035305813
151	0x3d54c075	0.051941354
152	0xbdb028b9	-0.08601517
153	0xbe2192c1	-0.15778638
154	0xbdf256bb	-0.11832949
155	0xbd6229d1	-0.05521566
156	0xbce494d9	-0.027903007
157	0xbdbbd2f7	-0.09171098
158	0xbd9c3e1a	-0.076290324
159	0xbe193be9	-0.1496426
160	0x3d2f684a	0.042824067
161	0xbd8f3301	-0.0699215
162	0xbd781a05	-0.06057169
163	0x3d7b5ae7	0.061365988
164	0xbdd8aa1e	-0.10579322
165	0xbc8d8bfb	-0.017278662
166	0x3d26d9e5	0.040735144
167	0xbd4cade2	-0.049970515
168	0x3d6cb0f4	0.057785943
169	0xbcadc1f4	-0.021210648
170	0xbe0597a9	-0.13046135
171	0xbcf260a1	-0.029587092
172	0x3c8b1d68	0.016981795
173	0xbdc518b5	-0.09623853
174	0xbd63a6f5	-0.055579145
175	0xbded2a9e	-0.11580394
176	0x3cf49ef6	0.029860955
177	0x3baf3733	0.0053471564
178	0xbdbffa00	-0.093738556
179	0xbc86341b	-0.016382268
180	0xbb873e74	-0.004127318
181	0xbe4f790f	-0.20261024
182	0xbd0f9aa8	-0.0350596
183	0xbd6fd4d2	-0.05855257
184	0xbc16ac6e	-0.009196384
185	0x3c2a3415	0.010388394
186	0xbe062709	-0.13100828
187	0xbbbddbcb	-0.0057940236
188	0xbb8bc138	-0.004264977
189	0x3a5b13f3	0.00083571597
190	0xbd966269	-0.07342989
191	0x3cae05bd	0.02124297
192	0x3d907a8c	0.07054624
193	0xbdc80d44	-0.09768155
194	0xbde8b234	-0.113621145
195	0x3d2f7d4f	0.042844113
196	0x3d9732d8	0.073827446
197	0xbbe8f71b	-0.0071095354
198	0x3dc1567d	0.094403245
199	0x3d47749e	0.0486952
200	0x3d57fc22	0.052730687
201	0xbc662fc2	-0.014049472
202	0xbe05a1c3	-0.13049988
203	0xbde52502	-0.11188699
204	0xbdf27a75	-0.11839763
205	0xbcd63761	-0.026149454
206	0xbdbebe45	-0.09313635
207	0xbdb44e1f	-0.08803963
208	0x3d99f9e7	0.07518368
209	0x3d0dff7b	0.034667473
210	0xbc7e9fc4	-0.015541021
211	0x3d99336e	0.074805126
212	0xbe07d50c	-0.13264865
213	0xbc1c6655	-0.009545882
214	0x3d59b92e	0.053155117
215	0xbd88999f	-0.06669926
216	0xbe1023d8	-0.14076173
217	0xbc081074	-0.008304704
218	0xbd9fccca	-0.07802732
219	0x3d25b7bb	0.040458422
220	0xbe075c18	-0.13218725
221	0x3bb68a18	0.0055706613
222	0xbdcf1c8e	-0.10112868
223	0x3d3fbae1	0.04680908
224	0xbd858328	-0.06519157
225	0xbd816983	-0.06318953
226	0xbdbb1e32	-0.09136619
227	0x3cb16b1b	0.021657517
228	0xbe1079d2	-0.14108971
229	0xbd6c6efe	-0.057723038
230	0xbe0594c3	-0.1304503
231	0x3d8d33f0	0.06894672
232	0x3d3c9f7d	0.046050537
233	0x3c9fa276	0.019486647
234	0x3d0ada3f	0.033899542
235	0xbd56825a	-0.052370407
236	0xbd95b645	-0.07310156
237	0xbd4018f1	-0.046898786
238	0x3d4025c1	0.046911005
239	0xbae54bd7	-0.0017493916
240	0xbe011a13	-0.12607603
241	0x3d332eff	0.04374599
242	0x3d9c3789	0.0762778
243	0xbdbfad17	-0.09359186
244	0xbdd7a071	-0.10528649
245	0xbe01864a	-0.12648883
246	0xbcf884e4	-0.030336805
247	0xbe1284e9	-0.14308514
248	0xbd56c782	-0.05243636
249	0xbd9aec49	-0.07564599
250	0xbd2c0ce6	-0.04200449
251	0x3d6f8fc5	0.05848672
252	0xbdeeecd7	-0.11666267
253	0x3cc6125c	0.024178676
254	0xbd5cd117	-0.05391034
255	0x3d1b84b0	0.037968338

mlp_layers.2.bias f4 [32]
0	0xbdc00947	-0.093767695
1	0xbdf4b08e	-0.11947738
2	0xbcd67cef	-0.02618262
3	0xbdf56f18	-0.1198408
4	0xbe1fb57a	-0.15596572
5	0xbd846f51	-0.064665444
6	0xbd23f58b	-0.04002909
7	0xbd212252	-0.03933937
8	0x3d19e697	0.037573423
9	0x3e20f723	0.15719275
10	0xbe1cce35	-0.15313037
11	0xbe368ed9	-0.1782793
12	0x3de97a1d	0.114002444
13	0xbd1eb9fe	-0.038751595
14	0x3da291ed	0.079379894
15	0xbde5c703	-0.11219599
16	0x3c5ff2fa	0.01366877
17	0xbd81e50d	-0.06342516
18	0xbd931dab	-0.07183393
19	0xbc5ca7d9	-0.013467752
20	0xbdceca35	-0.10097162
21	0xbdb6140a	-0.08890541
22	0xbe28f668	-0.16500247
23	0xbe0d6fab	-0.13812129
24	0x3c66d648	0.014089175
25	0x3e1049e1	0.14090683
26	0xbd999513	-0.07499137
27	0xbcdf4140	-0.027252793
28	0x3d9d229d	0.076726176
29	0xbdc27232	-0.09494437
30	0xbe30fc4b	-0.17283742
31	0xbde5b9a1	-0.112170465

mlp_layers.4.weight f4 [16, 32]
0	0x3e6d306b	0.23163001
1	0xbd2960d7	-0.04135212
2	0x3d87a180	0.066226006
3	0xbd8789df	-0.06618094
4	0xbdb920e3	-0.09039476
5	0xbd34f70b	-0.04418091
6	0x3e30d600	0.17269135
7	0x3e271b8d	0.16319104
8	0xbdbb0a18	-0.091327846
9	0xbb8b4324	-0.004249947
10	0xbbd42b14	-0.006474862
11	0x3cfc3972	0.03078911
12	0xbe959824	-0.29217637
13	0x3e3d2548	0.18471253
14	0xbd913d0d	-0.07091723
15	0x3e2412b5	0.16022761
16	0x3d46a174	0.048493817
17	0x3e43a345	0.19105251
18	0xbd710dc7	-0.05885103
19	0x3da9b8a8	0.082871735
20	0x3d8a5da8	0.06756145
21	0xbc147350	-0.009060696
22	0x3e402cdf	0.18767117
23	0xbcbb55d8	-0.022868082
24	0xbc1f3714	-0.0097177215
25	0x3dcf203c	0.1011357
26	0xbcbad86c	-0.022808276
27	0x3e09ee30	0.13469768
28	0xbdf8ac83	-0.12142279
29	0x3d2c1620	0.042013288
30	0x3e49cc3e	0.19706818
31	0xbdc57f1d	-0.096433856
32	0xbd9f0bdc	-0.07765934
33	0xbe0010b8	-0.12506378
34	0xbdfd6295	-0.12372319
35	0x3e219e0d	0.15782948
36	0x3d6996c8	0.05702856
37	0xbd8ec0df	-0.06970381
38	0x3d86f06f	0.06588828
39	0x3dd7bda8	0.10534221
40	0x3ce84edf	0.028357921
41	0xbc1680ae	-0.009185953
42	0x3d9c64b3	0.07636394
43	0xbe215120	-0.15753603
44	0xbb7a1db5	-0.003816468
45	0xbd129ec4	-0.035795942
46	0xbd1fbb21	-0.03899682
47	0xbd777b15	-0.060420115
48	0x3d5f2274	0.054476216
49	0xbccbf79f	-0.024898348
50	0xbd33bdf0	-0.04388231
51	0x3d60b84f	0.05486327
52	0xbd65ff6b	-0.05615179
53	0xbe2404ca	-0.16017452
54	0xbd12cba8	-0.035838753
55	0x3ca5e4e4	0.020250745
56	0x3d5f3ba7	0.05450025
57	0x3ae8d6b4	0.0017764182
58	0xbca09f29	-0.019607143
59	0xbd641770	-0.055686414
60	0x3db19d5e	0.086725935
61	0x3e1d7abd	0.15378852
62	0xbe295529	-0.16536392
63	0xbe1a1954	-0.15048724
64	0xbd706949	-0.058694158
65	0xbce79a19	-0.028271722
66	0xbda36519	-0.07978267
67	0xbdd3332b	-0.10312494
68	0xbcca3735	-0.024684528
69	0x3dafdfff	0.08587646
70	0xbdc7ad78	-0.097498834
71	0xbd7ff8a7	-0.062492993
72	0x3b244d27	0.00250704
73	0x3daaa52e	0.08332287
74	0x3cec11cd	0.028817082
75	0x3c87a2da	0.016557146
76	0x3d7ac507	0.061223056
77	0xbd2e51a5	-0.04255833
78	0x3d1fbfd9	0.03900132
79	0xbda0ce94	-0.07851902
80	0x3cb225c3	0.021746522
81	0x3ccb2c7c	0.024801485
82	0x3d0fa81b	0.035072427
83	0x3da1ac95	0.078942455
84	0x3c39a67b	0.011331196
85	0xbe0701f9	-0.13184346
86	0xbd72f414	-0.059314802
87	0x3c81d88d	0.01585033
88	0xbcd460ca	-0.025925059
89	0xbe07d050	-0.13263059
90	0x3e281775	0.16415198
91	0x3bb29516	0.0054499013
92	0x3d4dcec2	0.050246008
93	0xbd203c46	-0.03911998
94	0xbdc11bdc	-0.09429142
95	0x3e1a28e8	0.15054667
96	0xbd733997	-0.059381094
97	0x3d260234	0.040529445
98	0xbc5a907b	-0.013340111
99	0x3e01a7f0	0.1266172
100	0xbe268edd	-0.16265436
101	0x3e131940	0.14365101
102	0x3e20abe1	0.15690567
103	0x3d381150	0.044938385
104	0xbe501358	-0.20319879
105	0xbdbae7ae	-0.09126221
106	0xbe32c8da	-0.17459431
107	0x3dd8c91a	0.10585232
108	0xbda28acd	-0.079366304
109	0x3d0037ed	0.031303335
110	0xbe04d4c5	-0.1297179
111	0x3e14d18c	0.14533061
112	0xbe1a49f5	-0.15067275
113	0xbe3fcda7	-0.18730794
114	0x3dfab56a	0.12241633
115	0x3dd362bd	0.10321567
116	0xbddb4d12	-0.10708059
117	0xbe05d3a0	-0.1306901
118	0xbe20bdd9	-0.15697421
119	0xbcd4e71b	-0.025989106
120	0x3c147c8b	0.0090628965
121	0xbe8edf37	-0.27904674
122	0x3e0881ce	0.13330767
123	0xbcf3b46c	-0.029749118
124	0xbe3b9d09	-0.18321623
125	0xbd5a88f0	-0.05335325
126	0xbe2ac3a5	-0.16676195
127	0xbe531767	-0.20614396
128	0x3cb0dc00	0.02158928
129	0xbd8d1eb1	-0.068906195
130	0x3d17fd9f	0.037107106
131	0x3e64e7b9	0.2235402
132	0xbe12f0e4	-0.14349705
133	0xbd8e1b17	-0.06938761
134	0xbdf5ebc7	-0.120078616
135	0x3cfdd593	0.03098563
136	0xbd2e8f95	-0.0426174
137	0xbe0db657	-0.13839088
138	0xbd957530	-0.07297742
139	0xbd8ccf15	-0.06875435
140	0x3d0c5611	0.034261767
141	0x3c85398c	0.016262792
142	0x3b5a5c22	0.0033319076
143	0x3d197d98	0.03747329
144	0xbdefcfd3	-0.11709561
145	0x3d25de6f	0.040495332
146	0xbc7d4148	-0.015457459
147	0xbe1f50ac	-0.15558118
148	0x3d865a90	0.06560242
149	0x3dd48592	0.10377039
150	0x3ac39c3f	0.0014923884
151	0x3df1b74c	0.11802539
152	0x3e2470bf	0.16058634
153	0x3df5dbca	0.12004812
154	0xbe0d8a21	-0.13822223
155	0xbd4f32db	-0.05058561
156	0xbde76ae3	-0.11299684
157	0xbdbf1be3	-0.09331491
158	0xbdc5f798	-0.096663654
159	0xbe20f41e	-0.15718123
160	0xbd99db21	-0.07512499
161	0x3d75395c	0.059869155
162	0x3e291253	0.16510896
163	0xbda298d8	-0.07939309
164	0xbd0ec5ff	-0.034856793
165	0x3e1007fb	0.14065544
166	0x3c792d53	0.01520856
167	0xbc0e1880	-0.008672833
168	0x3e235de8	0.15953791
169	0x3cbd0bab	0.023076853
170	0x3df332a0	0.1187489
171	0xbda0db3b	-0.07854315
172	0xbe1cd71b	-0.15316431
173	0x3d2846fc	0.04108332
174	0xbd39db9d	-0.045375455
175	0xbdbe377b	-0.09287926
176	0x3cce6ae5	0.025197456
177	0x3dd6ca80	0.104878426
178	0xbd7fb96a	-0.062432684
179	0xbd1546bb	-0.036444407
180	0xbdcdcd18	-0.10048884
181	0x3d497278	0.04918143
182	0x3e27bd28	0.16380751
183	0xbe2fd107	-0.17169581
184	0xbc7ab4a0	-0.015301853
185	0x3dec4769	0.11537058
186	0x3dac6bf3	0.08419027
187	0xbe1e4507	-0.1545602
188	0x3dfbcbcb	0.1229473
189	0x3de2c8d2	0.1107346
190	0x3e1a2b85	0.15055664
191	0xbd7298a9	-0.05922762
192	0xbe3947de	-0.18093821
193	0xbe343d7b	-0.17601578
194	0x3d8b5a50	0.06804335
195	0x3c19d8cc	0.009390067
196	0x3d8c9c73	0.06865778
197	0xbe2716e6	-0.16317329
198	0x3e20316b	0.15643851
199	0x3b86961f	0.0041072513
200	0x3d6850de	0.056717746
201	0xbbe267c8	-0.0069093443
202	0x3e1950b1	0.14972188
203	0x3da7ffef	0.08203112
204	0xbd736b21	-0.059428338
205	0xbe127eb6	-0.14306149
206	0xbe41c397	-0.18922268
207	0xbdf5672c	-0.11982569
208	0x3dd01ff0	0.101623416
209	0xbc0c6e50	-0.008571222
210	0xbdb50bde	-0.08840154
211	0xbda46d27	-0.08028632
212	0xbd1c3c97	-0.03814372
213	0xbe1114e9	-0.14168133
214	0xbd8f5433	-0.069984816
215	0x3d944259	0.07239217
216	0x3c8d319a	0.017235566
217	0xbe6ad547	-0.22932921
218	0x3e0c2d0b	0.13689058
219	0xbda8aaa2	-0.082356706
220	0x3d634d52	0.05549366
221	0xbc15f3a9	-0.009152331
222	0xbdbda180	-0.09259319
223	0xbde2f0b7	-0.11081069
224	0xbc581300	-0.013188124
225	0xbda497f6	-0.08036797
226	0xbbad6b81	-0.0052923565
227	0x3d16b1f4	0.036790803
228	0x3d9f2f48	0.0777269
229	0x3cb99c39	0.0226575
230	0x3e3007fb	0.17190544
231	0xbe0fcfc2	-0.14044097
232	0x3e140d37	0.14458166
233	0xbdd934c2	-0.10605766
234	0x3b1b6480	0.0023711026
235	0x3c605419	0.013691925
236	0x3cc73148	0.024315491
237	0xbe28dbd1	-0.16490103
238	0xbddf34a6	-0.10898714
239	0xbcaef976	-0.021359187
240	0xbc9af91a	-0.018917609
241	0xbd824f03	-0.063627265
242	0xbe0484c9	-0.12941279
243	0xbd41c220	-0.047304273
244	0xbcba5bb4	-0.022748806
245	0x3ddd3c2a	0.10802491
246	0x3e1aab29	0.15104355
247	0x3dbad8d6	0.091233894
248	0xbe2b0fb9	-0.16705216
249	0x3d829a8f	0.06377136
250	0xbd9cbfda	-0.0765378
251	0xbdbe01b3	-0.09277668
252	0xbe16c04a	-0.1472179
253	0x3d8dd882	0.06926061
254	0x3ddff68e	0.109356984
255	0x3d07853f	0.033086058

mlp_layers.4.bias f4 [16]
0	0x3ee3b765	0.44475856
1	0xbd3a57be	-0.045493834
2	0x3ef366b5	0.47539297
3	0xbcfa2a35	-0.030537704
4	0x3ead0ea4	0.33800232
5	0xbe17e671	-0.14834
6	0xbc4484c7	-0.011994547
7	0xbe2fc857	-0.17166267
8	0x3ed4cac7	0.41560957
9	0xbd17f2c1	-0.037096743
10	0xbd50c2c7	-0.050967004
11	0xbc1a01b4	-0.00939982
12	0xbc5d72a7	-0.013516105
13	0xbdb986c6	-0.09058909
14	0x3f083b87	0.5321583
15	0x3ee53b2f	0.44771716

prediction_layer.weight f4 [1, 16]
0	0x3d396419	0.045261476
1	0x3e0dacd7	0.13835464
2	0x3e8d5740	0.2760563
3	0xbd8629af	-0.06550919
4	0x3e7ce76f	0.2469766
5	0xbd0d636f	-0.034518655
6	0xbab731fd	-0.001397669
7	0x3e196754	0.14980823
8	0x3e054977	0.13016306
9	0x3ca4e4d4	0.020128645
10	0xbb31e3c3	-0.0027143813
11	0x3b10ab1d	0.0022074648
12	0xb92aa9d0	-0.00016275723
13	0xbe449796	-0.1919845
14	0x3e2dc673	0.16970234
15	0x3de20d79	0.11037726
